backend/weights/mnist_cnn.16.20.99.pt (torch, 430773 bytes, 16 tensors)

conv1.weight f4 [16, 1, 3, 3]
0	0x3e394599	0.18092956
1	0xbe41611b	-0.18884699
2	0x3e325726	0.17416057
3	0x3ea31d07	0.31858084
4	0x3e44c34c	0.19215125
5	0x3e7294d1	0.23689581
6	0x3db59b04	0.088674575
7	0xbe49112e	-0.1963546
8	0xbeaa1c1b	-0.33224568
9	0x3e47b43a	0.19502345
10	0xbe22d664	-0.15902096
11	0xbe7919e2	-0.2432628
12	0x3c5db103	0.013530972
13	0xbeea352b	-0.4574369
14	0x3d7a8420	0.06116116
15	0xbe9eca4e	-0.3101372
16	0xbdf148a1	-0.11781431
17	0x3e50a6fd	0.20376201
18	0xbeebbd29	-0.46042755
19	0xbe9137d9	-0.2836292
20	0xbea59b23	-0.32344922
21	0xbe3ca91d	-0.18423887
22	0xbdd91c3a	-0.10601087
23	0x3cf4b2ba	0.02987038
24	0x3bca0dc1	0.0061661904
25	0x3e9ce15d	0.3064069
26	0x3e8254da	0.25455362
27	0xbe814115	-0.25244966
28	0x3e029be0	0.12754774
29	0x3e8fe1fe	0.28102106
30	0xbec13cb9	-0.3774164
31	0xbdd81d85	-0.105525054
32	0x3ecd5e27	0.40110895
33	0xbebb7bb2	-0.3661781
34	0xbc3eb134	-0.011638928
35	0xbe013a68	-0.12619936
36	0xbc96c48e	-0.018404271
37	0x3d9a2ee9	0.07528479
38	0xbbe8180c	-0.0070829447
39	0x3cead50c	0.028666042
40	0x3e795ccf	0.2435181
41	0x3e2731c0	0.16327572
42	0xbed8a2f6	-0.4231183
43	0xbe96dda3	-0.2946597
44	0xbea6af07	-0.3255541
45	0x3e801f12	0.25023705
46	0x3e42acbd	0.19011207
47	0x3dfa267d	0.12214372
48	0xbe09b2b3	-0.13447075
49	0xbd9ae2a9	-0.07562763
50	0xbe625c22	-0.22105458
51	0xbec133a4	-0.3773471
52	0xbe5d0446	-0.21583661
53	0xbe2baeca	-0.16765895
54	0x3e111cc6	0.14171132
55	0x3ec7bd7e	0.3901176
56	0x3d9e31af	0.0772432
57	0x3dd8e850	0.10591185
58	0x3e1bedc0	0.15227413
59	0xbdc2cc2a	-0.095115975
60	0xbd257215	-0.040392
61	0xbe6ee12c	-0.23328084
62	0xbf058f4f	-0.52171797
63	0x3edafee4	0.4277259
64	0xbd017503	-0.03160573
65	0xbe9517f2	-0.2911983
66	0x3d94dc05	0.07268528
67	0x3e9feb31	0.31234124
68	0x3dbcaaff	0.092123024
69	0xbc5cff52	-0.0134886075
70	0x3e712b7f	0.23551749
71	0x3dbd0b6c	0.09230694
72	0x3e5aa0e3	0.21350436
73	0xbe69a672	-0.228174
74	0xbed58dab	-0.41709647
75	0x3e9f3212	0.31092888
76	0x3dab94b6	0.08377974
77	0xbe0714ef	-0.1319158
78	0x3d1c5018	0.03816232
79	0x3e745685	0.2386113
80	0x3e332154	0.17493182
81	0xbd125cc7	-0.03573301
82	0x3d86b58c	0.06577596
83	0x3e98f9ca	0.29878074
84	0xbe859eb9	-0.26097658
85	0xbd8e5df9	-0.069515176
86	0x3de89a41	0.113575466
87	0xbe2d12b0	-0.1690166
88	0xbea13a81	-0.31489947
89	0xbea27501	-0.31729892
90	0xbef89d45	-0.48557487
91	0xbd2c9fd6	-0.04214462
92	0x3e0bbac1	0.1364546
93	0xbb89ac33	-0.004201436
94	0x3ee8b88e	0.45453304
95	0x3e434bd5	0.19071896
96	0x3dac5a0f	0.08415615
97	0x3d0acd94	0.03388746
98	0x3c97cd8c	0.01853063
99	0x3e7516f9	0.23934545
100	0x3c41e3a2	0.011834057
101	0xbea49d77	-0.32151386
102	0x3e991fd0	0.29907084
103	0xbd7e0344	-0.062014833
104	0xbe9aa1c7	-0.3020155
105	0xbe37f5b3	-0.1796482
106	0xbea98ebf	-0.3311672
107	0xbe6fb342	-0.23408225
108	0x3d9fbbfb	0.07799526
109	0x3eda3a8e	0.426228
110	0x3e4d9e14	0.20079833
111	0x3e9c05f2	0.30473286
112	0x3d81cc14	0.06337753
113	0xbe4bdf4f	-0.19909404
114	0x3d8eee96	0.069791004
115	0x3e7de8b5	0.24795802
116	0xbe9017a2	-0.2814303
117	0x3e1d5623	0.1536489
118	0xbe6d050d	-0.23146458
119	0xbe7ac53d	-0.24489303
120	0x3e17d1d8	0.14826143
121	0x3d9041f3	0.07043829
122	0xbec0fab1	-0.37691262
123	0x3ebdd64d	0.3707756
124	0xbe17f60b	-0.14839952
125	0xbea9ec92	-0.331883
126	0x3e4606b0	0.19338489
127	0x3ea492dc	0.32143295
128	0xbcbd1cd7	-0.023085041
129	0xbe83e02a	-0.2575696
130	0x3e2f3a29	0.1711203
131	0x3e5f8902	0.21829608
132	0xbe302dea	-0.17205015
133	0xbdc16097	-0.09442251
134	0x3edbc51e	0.42923826
135	0xbc3de961	-0.011591286
136	0x3e0142e0	0.12623167
137	0xbe94d27c	-0.29066837
138	0x3e0eced9	0.13946094
139	0x3dd23d00	0.10265541
140	0xbedcff6e	-0.43163627
141	0x3dd41da0	0.10357213
142	0x3e56915b	0.20953886
143	0x3d4b0aa2	0.049570687

conv1.bias f4 [16]
0	0xbc6b7505	-0.014371161
1	0xbb032193	-0.0020009025
2	0x3b51fd0f	0.0032041704
3	0x385ce704	5.2667237e-05
4	0x3c670557	0.014100394
5	0xbcbfb0fb	-0.02339982
6	0xbb459ced	-0.003015335
7	0x3bac2eb4	0.005254591
8	0xbbdf5c2c	-0.0068164077
9	0xbc967310	-0.018365413
10	0xbb07c6af	-0.002071779
11	0x3bfbac09	0.0076804203
12	0xbbe03f1e	-0.0068434617
13	0x3ad96289	0.0016585152
14	0x3b9bd5e9	0.0047557247
15	0x3aeebe16	0.0018214609

bn1.weight f4 [16]
0	0x3ee93121	0.45545295
1	0x3fafeecf	1.3744754
2	0x3f894618	1.0724516
3	0x3f3ff54a	0.74983656
4	0x3f8839eb	1.0642675
5	0x3f886f1a	1.0658906
6	0x3f2cfdfe	0.6757506
7	0x3f193522	0.598467
8	0x3f61b0d3	0.8816044
9	0x3f97ba1a	1.1853669
10	0x3f1bcd4a	0.6086012
11	0x3fa2b85f	1.2712516
12	0x3f2113cf	0.6292085
13	0x3f7e7c9b	0.9940888
14	0x3f20c6e1	0.62803465
15	0x3f237e7a	0.6386486

bn1.bias f4 [16]
0	0x3e1f4ff8	0.1555785
1	0xbedfbfc1	-0.43700984
2	0xbe97dee8	-0.2966225
3	0xbe5d554e	-0.21614572
4	0xbea8b0de	-0.3294744
5	0xbe822976	-0.25422257
6	0x3c4eeb45	0.012629335
7	0xbe46d60b	-0.19417588
8	0xbf92572a	-1.143285
9	0xbef012f3	-0.46889457
10	0xbe9eec79	-0.3103979
11	0xbf025108	-0.50904894
12	0xbef9b0ca	-0.48767692
13	0xbeaff9da	-0.3437031
14	0xbf02d46f	-0.511054
15	0xbd554765	-0.05207004

bn1.running_mean f4 [16]
0	0xbc009945	-0.007849042
1	0xbc030fee	-0.007999403
2	0xbc60f6c2	-0.013730707
3	0xbc20fa76	-0.00982534
4	0xbc35433f	-0.011063396
5	0xbd0d1912	-0.034447737
6	0xbc533156	-0.012890181
7	0x3c86e588	0.01646687
8	0xbbc07697	-0.005873512
9	0xbcfa1b57	-0.030530615
10	0xbc0fb028	-0.008770026
11	0xbc171404	-0.009221081
12	0x3bb1cb68	0.0054258592
13	0xbc156af0	-0.009119734
14	0x3c92b0e2	0.01790661
15	0xbb7755e8	-0.0037740413

bn1.running_var f4 [16]
0	0x3eafc934	0.34333193
1	0x3f2ed281	0.68289953
2	0x3f71cd9d	0.94454366
3	0x3f149f45	0.58055526
4	0x3ec53e76	0.38524216
5	0x3f163448	0.58673525
6	0x3f075af6	0.5287317
7	0x3f278a6b	0.65445584
8	0x3eb08cec	0.34482515
9	0x3f09749e	0.5369357
10	0x3ed289d3	0.41120777
11	0x3f75da2b	0.9603602
12	0x3f5cb538	0.8621402
13	0x3f32fcb5	0.6991685
14	0x3f1313c6	0.57452047
15	0x3e514fc5	0.20440586

conv2.weight f4 [32, 16, 3, 3]
0	0xbdacb9e3	-0.084338926
1	0x3dbd2c65	0.09236983
2	0x3e24931e	0.16071746
3	0xbe662ec5	-0.22478779
4	0x3cbf01d5	0.023316303
5	0xbdb4ce5f	-0.08828425
6	0xbd6fe700	-0.05856991
7	0xbd6d77c2	-0.057975538
8	0xbd686cb6	-0.0567443
9	0xbdeb9e16	-0.11504762
10	0x3e416773	0.18887119
11	0x3d537d60	0.05163324
12	0xbea0f87c	-0.3143958
13	0xbd3e9dbe	-0.046537153
14	0x3c95a6d3	0.018268025
15	0x3d524f67	0.051345255
16	0x3db23f48	0.08703476
17	0xbda6a061	-0.081360586
18	0xbe1fa552	-0.15590408
19	0x3c60b192	0.013714211
20	0xbd495c09	-0.049160037
21	0xbcd705e4	-0.026247926
22	0x3e70a5cc	0.23500746
23	0x3d842a43	0.06453373
24	0xbdbc8fba	-0.09207101
25	0x3d073b67	0.033015635
26	0xbcdfbd34	-0.027311899
27	0x3e13e2f9	0.14442052
28	0x3da6c68c	0.081433386
29	0x3cf54d7c	0.029944174
30	0x3d828d5e	0.0637462
31	0xbc89cc50	-0.016821057
32	0xbe4517f5	-0.1924742
33	0xbe67c166	-0.2263237
34	0xbce72ddb	-0.028220108
35	0x3b24ea3a	0.0025164024
36	0x36c036a0	5.728405e-06
37	0xbda6efbe	-0.08151196
38	0x3c9bbb08	0.019010082
39	0x3d3c86c6	0.046026967
40	0x3e4fdfa0	0.2030015
41	0x3dcfa641	0.10139132
42	0xbe322f8c	-0.1740095
43	0xbd499527	-0.04921451
44	0xbd11be36	-0.03558179
45	0xbd4897e6	-0.048972987
46	0x3d859e69	0.06524355
47	0x3df721f3	0.12067022
48	0xbe5c1d37	-0.2149552
49	0x3ddc6ed8	0.10763329
50	0x3e315562	0.17317727
51	0xbe4f13a9	-0.20222344
52	0x3db9ba95	0.09068791
53	0x3d2b7cf4	0.04186721
54	0x3d91511a	0.07095547
55	0xbbfc5f47	-0.0077017876
56	0x3e21f7b6	0.1581715
57	0xbdecc398	-0.11560744
58	0x3de98867	0.1140297
59	0x3c9811e5	0.01856322
60	0xbe99faef	-0.3007426
61	0xbe4f0581	-0.20216943
62	0xbe7bd87f	-0.24594305
63	0x3b7f47a2	0.0038952609
64	0x3e1816fc	0.14852518
65	0x3bd58e28	0.0065171905
66	0xbe4ff874	-0.20309621
67	0xbe278be0	-0.16361952
68	0xbe280ca7	-0.16411076
69	0xbdbc45a5	-0.09192971
70	0x3d87a92f	0.06624066
71	0x3d7aed54	0.06126149
72	0xbafbaedd	-0.0019201894
73	0x3dc80d0d	0.09768114
74	0xbe240a37	-0.16019522
75	0x3d28f2c3	0.04124714
76	0xbe04a85d	-0.1295485
77	0xbe3084e4	-0.17238194
78	0xbd503149	-0.050828252
79	0xbd1810dd	-0.037125457
80	0x3dceb709	0.10093505
81	0x3d82726c	0.063694805
82	0x3ce2da30	0.02769193
83	0x3d9ae51e	0.07563232
84	0x3df8001d	0.121093966
85	0x3dd51c82	0.10405828
86	0xbe63d405	-0.22248848
87	0xbd206252	-0.039156266
88	0xbe68282f	-0.22671579
89	0xbe8b7e71	-0.27244905
90	0x3c02c3f7	0.007981292
91	0x3df7fc66	0.12108688
92	0x3db234a0	0.08701444
93	0xbe281f98	-0.16418302
94	0xbe2313f1	-0.15925576
95	0xbe16a4a1	-0.14711238
96	0xbceddb50	-0.02903524
97	0x3cf13919	0.029446172
98	0x3c55eaa5	0.013056432
99	0xbddf0c21	-0.10890985
100	0x3e53dc3a	0.20689479
101	0x3d29f86b	0.041496675
102	0xbee7ad54	-0.45249426
103	0xbe3c40fa	-0.18384162
104	0xbd89b148	-0.06723267
105	0xbddcd67f	-0.107830994
106	0xbe30f22b	-0.1727988
107	0xbdc16e1f	-0.09444832
108	0x3c3c9c06	0.011511808
109	0x3dbeffba	0.0932612
110	0x3debe926	0.11519079
111	0xbe2f3352	-0.17109421
112	0x3d7fd85d	0.0624622
113	0xbc00a89d	-0.007852701
114	0xbe08188f	-0.13290618
115	0xbe2463fa	-0.16053763
116	0xbd141f75	-0.036162812
117	0xbdcf50e8	-0.101228535
118	0x3e248e60	0.16069937
119	0xbe12899b	-0.14310305
120	0xbe8f39dd	-0.27973834
121	0xbe5ad5d5	-0.21370633
122	0xbe8c0eb1	-0.2735496
123	0xbb8a5627	-0.004221696
124	0x3d4e574d	0.050376225
125	0x3d4b41f7	0.049623456
126	0x3e25f7af	0.16207765
127	0x3d819522	0.06327273
128	0xbd00dfca	-0.031463422
129	0xbd1adbdf	-0.03780734
130	0xbe0413dd	-0.12898202
131	0xbe15fb11	-0.14646555
132	0xbdcbb662	-0.09946896
133	0x3db946b1	0.090466864
134	0x3d3a506b	0.04548685
135	0x3d03246e	0.032017164
136	0x3dfe7896	0.12425344
137	0xbe45d81b	-0.19320719
138	0xbe3b8397	-0.18311916
139	0xbe615aad	-0.22007246
140	0xbd4aa315	-0.049471933
141	0xbcc3d45f	-0.023904977
142	0x3cb0d31c	0.02158504
143	0x3d91fd07	0.07128339
144	0x3e0782a1	0.13233425
145	0x3ce334b2	0.027735088
146	0xbeb15811	-0.34637502
147	0xbebb0d73	-0.36533698
148	0x3cb7bc4d	0.022428656
149	0x3daebca3	0.08532073
150	0x3cdc82df	0.026917873
151	0x3d94a547	0.07258087
152	0xbd6cd40a	-0.057819404
153	0xbc50b477	-0.012738339
154	0x3e114af1	0.14188744
155	0x3db7df31	0.08978117
156	0x3e8ac182	0.2710076
157	0x3d81ca00	0.063373566
158	0xbd609c56	-0.054836594
159	0xbe0a1580	-0.13484764
160	0xbe1ba6a7	-0.15200292
161	0xbe0bd43e	-0.13655183
162	0xbdb674f7	-0.08909028
163	0xbdc72ee6	-0.09725742
164	0x3d892881	0.06697179
165	0xb996461d	-0.00028662468
166	0x3d4fffc8	0.05078104
167	0x3d9e983d	0.07743881
168	0xbc325f56	-0.010886988
169	0xbe27374e	-0.16329691
170	0xbb3a5f96	-0.0028438321
171	0x3deec30e	0.116582975
172	0xbd905e58	-0.07049245
173	0xbe7958cd	-0.24350281
174	0xbe69d204	-0.22834021
175	0xbe05a520	-0.13051271
176	0x3d8ff664	0.07029417
177	0x3defa539	0.117014356
178	0x3da34c66	0.07973556
179	0x3caf178b	0.02137353
180	0x3dc95ac7	0.098317675
181	0xbdfe1bd0	-0.124076486
182	0x3dd3bcb8	0.103387296
183	0xbe422915	-0.18960984
184	0xbe7e7026	-0.24847469
185	0x3e7f7a67	0.24949037
186	0xbedd0d17	-0.4317405
187	0x3e02aaae	0.12760422
188	0x3e360524	0.17775398
189	0xbccd39d9	-0.025051998
190	0x3cb3448d	0.021883273
191	0x3c5982e4	0.013275836
192	0xbcdc3465	-0.026880452
193	0xbd9db2f7	-0.077001505
194	0x3dd89bb0	0.1057657
195	0xbf048f84	-0.5178149
196	0x3dd77fa0	0.105223894
197	0x3e1c551d	0.15266843
198	0x3d61b8d4	0.055107906
199	0x3d45d60f	0.048299845
200	0xbe45075a	-0.19241086
201	0x3c5bfb2c	0.013426583
202	0xbd9ab69b	-0.075543605
203	0xbcadd8f6	-0.02122162
204	0xbe0847e6	-0.13308677
205	0x3d72089d	0.059090246
206	0x3ceef3ab	0.029168924
207	0x3cae89a6	0.02130587
208	0xbd90c55a	-0.07068892
209	0xbdbb6801	-0.091506965
210	0xbd87f3be	-0.06638287
211	0x3d0c479d	0.034247983
212	0x3dcabef4	0.09899703
213	0xbc2ddca7	-0.01061169
214	0xbb2f24c4	-0.0026724795
215	0xbaed0ff0	-0.0018086415
216	0xbbea44ea	-0.0071493285
217	0xbe1d7104	-0.15375143
218	0x3c12e2d3	0.008965212
219	0xbe6397af	-0.22225831
220	0xbd778f9e	-0.0604397
221	0x3d4cfae0	0.05004394
222	0xbdb79c43	-0.089653514
223	0xbbe7d798	-0.0070752613
224	0x3d275245	0.040849943
225	0x3e259201	0.16168977
226	0xbe18848e	-0.14894316
227	0xbe1cfbf8	-0.15330493
228	0xbe90ace7	-0.28256914
229	0xbe848050	-0.25879145
230	0x3dd420fc	0.10357854
231	0xbe201e1e	-0.15636489
232	0x3dea815c	0.114504546
233	0x3dc4405a	0.095825866
234	0x3d682ff1	0.056686345
235	0xbe4cd2a7	-0.20002232
236	0xbe1ed979	-0.15512647
237	0xbe51f7f5	-0.20504744
238	0x3d193011	0.037399355
239	0x3e416634	0.18886644
240	0x3d8801ba	0.06640954
241	0xbd5520d3	-0.052033257
242	0xbe2c141f	-0.1680455
243	0x3dc11aa2	0.09428908
244	0x3ddf5db8	0.10906547
245	0xbd19b4eb	-0.037526052
246	0xbe4de0dd	-0.2010531
247	0xbd85dada	-0.06535883
248	0xbe6f95df	-0.23397015
249	0xbde9bff9	-0.11413569
250	0x3d1b2d0f	0.037884768
251	0xbe2a3fd8	-0.16625917
252	0x3d9fad0a	0.077966765
253	0x3c89e6c1	0.016833665
254	0xbe918687	-0.2842295
255	0xbe5e9ddd	-0.21739908

conv2.bias f4 [32]
0	0x3a69f6fe	0.00089250493
1	0xba076241	-0.0005164482
2	0x3a720b31	0.0009233235
3	0xbabec4c9	-0.0014554496
4	0x3aa95530	0.0012919065
5	0xba5a68a6	-0.0008331634
6	0x399197f6	0.00027769775
7	0x3a2cb7c4	0.00065886625
8	0x3afcb3a7	0.0019279615
9	0x3af0a994	0.0018361085
10	0x39eafec9	0.00044821788
11	0xba9acbff	-0.0011810063
12	0xbb5075ab	-0.0031808417
13	0xb9bcb3e8	-0.00035992195
14	0xbb46c506	-0.0030329837
15	0x39fd94a9	0.0004836668
16	0xba8b2daa	-0.0010618467
17	0xb941793a	-0.00018451075
18	0xb7a08150	-1.9133702e-05
19	0x3abdc69c	0.0014478746
20	0x3a3f7d2f	0.00073047256
21	0xbb1ac6a6	-0.002361694
22	0x3adef0d5	0.0017009029
23	0x39fdbc6d	0.0004839631
24	0x3ae2876f	0.0017282794
25	0xb8d0fa4d	-9.964835e-05
26	0x3a82c859	0.0009977921
27	0x3b001394	0.001954292
28	0xba856477	-0.0010177036
29	0x38cdff60	9.822729e-05
30	0x3a175c15	0.0005773914
31	0xbaa4a078	-0.001256003

bn2.weight f4 [32]
0	0x3faa2f9f	1.3295783
1	0x3fab7c71	1.3397352
2	0x3f9e55d5	1.2369944
3	0x3f91c70d	1.138887
4	0x3fa2fda3	1.2733654
5	0x3f9481a1	1.160206
6	0x3f87404f	1.05665
7	0x3f8606eb	1.0470861
8	0x3fa0745f	1.2535514
9	0x3f92b58b	1.1461653
10	0x3fa1f77c	1.2653651
11	0x3f8e785a	1.1130478
12	0x3fa4a52c	1.2862906
13	0x3f979020	1.1840858
14	0x3f9b174d	1.2116486
15	0x3fb8d08d	1.4438645
16	0x3f8af250	1.0855198
17	0x3f55504d	0.83325654
18	0x3fb10f07	1.3832711
19	0x3f8243d0	1.0176945
20	0x3f5aceb1	0.85471636
21	0x3f82ef55	1.0229288
22	0x3fa6b763	1.3024715
23	0x3f5d3147	0.86403316
24	0x3f582aad	0.8444012
25	0x3f67e764	0.9058745
26	0x3f98d9b0	1.1941433
27	0x3f88000e	1.0625017
28	0x3f94ded7	1.1630505
29	0x3f9b6fca	1.214349
30	0x3f8b352f	1.0875605
31	0x3fa65bb1	1.2996732

bn2.bias f4 [32]
0	0xbf44c3af	-0.7686109
1	0xbf4726fb	-0.77793854
2	0xbf4301b9	-0.76174504
3	0xbf15d58d	-0.5852898
4	0xbf37d3bf	-0.71807474
5	0xbf2c412d	-0.6728695
6	0xbf1d2a88	-0.6139302
7	0xbf12b29d	-0.5730379
8	0xbf4fe9ee	-0.81216323
9	0xbf302ee4	-0.6882155
10	0xbf4589a8	-0.7716317
11	0xbf14903e	-0.58032596
12	0xbf453ae2	-0.77042973
13	0xbf1f3dab	-0.6220347
14	0xbf514bac	-0.8175609
15	0xbf367c9d	-0.71283895
16	0xbf595132	-0.8488952
17	0xbf5dd9e4	-0.866606
18	0xbf4768b4	-0.7789414
19	0xbf0d7236	-0.552524
20	0xbfafb697	-1.3727597
21	0xbf258123	-0.6465017
22	0xbf4b384f	-0.79382795
23	0xbf7ea410	-0.9946909
24	0xbf42c158	-0.7607627
25	0xbf11ae1a	-0.5690628
26	0xbf2d4750	-0.6768694
27	0xbf2f3b56	-0.68449914
28	0xbf55570d	-0.83335954
29	0xbf15fc29	-0.5858789
30	0xbf29168f	-0.66050047
31	0xbf496e43	-0.7868387

bn2.running_mean f4 [32]
0	0xbf7c8713	-0.98643607
1	0xbf8380d8	-1.0273695
2	0xbf855843	-1.041756
3	0xbf866f90	-1.0502796
4	0xbf834dc2	-1.0258105
5	0xbf58b5c0	-0.8465233
6	0xbf967644	-1.1754842
7	0xbf8076ae	-1.0036218
8	0xbf526a4e	-0.8219346
9	0xbf6c7192	-0.92360795
10	0xbfbaaabc	-1.4583354
11	0xbfb83b30	-1.4393063
12	0xbf86f9f6	-1.0545032
13	0xbf97c6a8	-1.18575
14	0xbf9065a0	-1.1281013
15	0xbf8e3a82	-1.1111605
16	0xbf6178d6	-0.88075006
17	0xbf04fb1f	-0.5194568
18	0xbf98079d	-1.1877323
19	0xbffd00b7	-1.9765843
20	0xbed2812b	-0.41114172
21	0xbf639557	-0.8889975
22	0xbf694f2f	-0.9113645
23	0xbe8b52b1	-0.27211526
24	0xbf72c271	-0.94827944
25	0xbf82eb9a	-1.022815
26	0xbf8933f4	-1.071898
27	0xbf76359c	-0.9617555
28	0xbf902591	-1.1261464
29	0xbfac1ca8	-1.3446245
30	0xbf6211ee	-0.8830861
31	0xbfad47ad	-1.3537499

bn2.running_var f4 [32]
0	0x403cb9a2	2.9488301
1	0x4028e082	2.6387029
2	0x4041c9d8	3.0279446
3	0x4072e934	3.7954836
4	0x4005c861	2.0903552
5	0x4005fc02	2.0935063
6	0x407909b9	3.8912184
7	0x400f156c	2.2356825
8	0x40214a57	2.5201623
9	0x4037857a	2.8675218
10	0x4072cd7e	3.7937922
11	0x40921d1f	4.566055
12	0x40229f96	2.5409904
13	0x408258d5	4.0733438
14	0x4016d48a	2.3567224
15	0x4042b546	3.042314
16	0x3fc3a96f	1.5286082
17	0x3f969fdc	1.1767535
18	0x404aa23e	3.1661525
19	0x409aedde	4.8415365
20	0x3f3370b4	0.70093846
21	0x4028fc78	2.6404095
22	0x402c0582	2.6878362
23	0x3fcf3dc4	1.6190724
24	0x3ff88d87	1.9418191
25	0x401e4350	2.4728584
26	0x403fb622	2.9954915
27	0x3f9f8e27	1.2465256
28	0x3fbfc3a6	1.4981582
29	0x40b806a4	5.7508106
30	0x401a8083	2.4140937
31	0x407938d4	3.8940935

fc1.weight f4 [64, 1568]
0	0x96ba9f15	-3.0150316e-25
1	0x2671bea6	8.387205e-16
2	0xa4659295	-4.978062e-17
3	0x22c33bbb	5.29181e-18
4	0x91812c98	-2.0380094e-28
5	0x81045770	-2.4307304e-38
6	0x006c53e1	9.948324e-39
7	0xa157b9b3	-7.3090604e-19
8	0x229beea2	4.2265497e-18
9	0xb50c52f1	-5.227476e-07
10	0xb5f37f14	-1.8141895e-06
11	0x35abfdd0	1.2814362e-06
12	0x32b164fa	2.065143e-08
13	0x80d1542e	-1.9223817e-38
14	0xad1eeeba	-9.034268e-12
15	0xb654748e	-3.1658305e-06
16	0x37fb68e5	2.9970377e-05
17	0xbaada652	-0.001324842
18	0x3916c43c	0.00014378218
19	0xb54264d6	-7.241737e-07
20	0x1800d0a3	1.6648947e-24
21	0x2a8caa80	2.4987304e-13
22	0xb5a74b8b	-1.2464455e-06
23	0x38a9eb8d	8.102423e-05
24	0x384b995e	4.8541806e-05
25	0xb8c43d9f	-9.357486e-05
26	0x370fb153	8.564751e-06
27	0x20f9a08a	4.2288477e-19
28	0xaa8eadf4	-2.534497e-13
29	0x36b205ed	5.3055032e-06
30	0xb94a6693	-0.00019302433
31	0x39aed206	0.00033344346
32	0xba02da4d	-0.0004991636
33	0xb3952e8b	-6.946819e-08
34	0xacd8d010	-6.162189e-12
35	0xad14b27d	-8.452458e-12
36	0xb7f72640	-2.9462506e-05
37	0x3875556d	5.849211e-05
38	0x3976cca6	0.00023536626
39	0xb9da7336	-0.0004166604
40	0xb321964d	-3.762243e-08
41	0x1c0bf2bf	4.6304984e-22
42	0xb01196f6	-5.296522e-10
43	0x37b8aaa5	2.2013972e-05
44	0xba85a157	-0.0010195178
45	0x3627f5bc	2.5027975e-06
46	0x359da236	1.1744621e-06
47	0xaed6ba58	-9.7646946e-11
48	0x003a8016	5.372407e-39
49	0xb159775f	-3.164551e-09
50	0xb190b4f1	-4.2115222e-09
51	0xb1eee74a	-6.953006e-09
52	0xb543f914	-7.300562e-07
53	0x30d1f68d	1.5276825e-09
54	0xb29190fe	-1.6946156e-08
55	0xb1e52cc4	-6.6698664e-09
56	0xb21f12e3	-9.259312e-09
57	0xb6818bda	-3.8607805e-06
58	0xb5bee1ed	-1.4221856e-06
59	0x345dd974	2.0661338e-07
60	0xb588d7b9	-1.0195573e-06
61	0x2fcf2226	3.7677345e-10
62	0x2fb0543d	3.2074068e-10
63	0xb8dc0fcd	-0.000104933606
64	0xba0a1ad8	-0.0005268282
65	0x34b21c4b	3.317567e-07
66	0x33b36aa7	8.354737e-08
67	0xa7d55a65	-5.921738e-15
68	0xaeff2539	-1.16026695e-10
69	0xaf81524c	-2.352344e-10
70	0x31edbc7d	6.9190365e-09
71	0xb721117a	-9.600417e-06
72	0x355de28f	8.26586e-07
73	0x2e66f927	5.2517237e-11
74	0xaddbe4c7	-2.4999015e-11
75	0xaaab663e	-3.0446647e-13
76	0x2f325927	1.6220679e-10
77	0xb485b9ca	-2.490836e-07
78	0xba7cd9e4	-0.00096455053
79	0xb1ce1199	-5.9973897e-09
80	0x30ca9089	1.4738514e-09
81	0xb4475958	-1.8565822e-07
82	0xab5db29c	-7.876284e-13
83	0xac90bd29	-4.113727e-12
84	0xb2c6789b	-2.3105079e-08
85	0x33903bce	6.716401e-08
86	0x301832dd	5.536956e-10
87	0xb1896049	-3.998171e-09
88	0x2ccd0a17	5.8275706e-12
89	0xa483f4ba	-5.722678e-17
90	0x30169a2d	5.478878e-10
91	0xb39696cd	-7.01235e-08
92	0x32b9a0dd	2.1609987e-08
93	0xb740b233	-1.1485582e-05
94	0xb73fcb01	-1.1431753e-05
95	0xaf32cff2	-1.6262883e-10
96	0xb58992dc	-1.0250037e-06
97	0x33186d98	3.5489933e-08
98	0xa81b63db	-8.625881e-15
99	0x220e2b58	1.9267535e-18
100	0x27cdb1bd	5.7091634e-15
101	0x2a5bae24	1.9511525e-13
102	0x32314e34	1.0320537e-08
103	0xad3d81b6	-1.0772208e-11
104	0xa04b1932	-1.7203105e-19
105	0xa60d68f9	-4.9061466e-16
106	0xa1e3cac6	-1.5435792e-18
107	0x2f50e0ce	1.8997356e-10
108	0xb228856c	-9.809224e-09
109	0x35096348	5.118095e-07
110	0xb39a45fd	-7.1839146e-08
111	0x2f897514	2.5003344e-10
112	0x28a6554f	1.8466699e-14
113	0xaeddceee	-1.00866746e-10
114	0xb52ce654	-6.4410165e-07
115	0x37a9d1e1	2.0244102e-05
116	0x3832abc9	4.2598494e-05
117	0xb6a484a2	-4.9030214e-06
118	0xaf19370c	-1.3934826e-10
119	0x26035f14	4.557861e-16
120	0xb5bfab47	-1.4280457e-06
121	0x3364c8aa	5.326789e-08
122	0xb82b74fd	-4.087853e-05
123	0x35bba119	1.3979471e-06
124	0x364ce0e2	3.0529268e-06
125	0xb3a04327	-7.4627955e-08
126	0xa6f1b86b	-1.6772721e-15
127	0xa34b431c	-1.1018863e-17
128	0xb5040c42	-4.919167e-07
129	0xb4bc28ed	-3.5047506e-07
130	0x37c251cf	2.3164697e-05
131	0xb88e2cdb	-6.7794426e-05
132	0x20c61eb7	3.356283e-19
133	0xa7742e71	-3.3886978e-15
134	0x203b434b	1.5861781e-19
135	0xb3b1bc58	-8.276464e-08
136	0xb8a5a73f	-7.898965e-05
137	0x393834e6	0.00017567314
138	0x37b16576	2.114729e-05
139	0x0ad8d529	2.0880225e-32
140	0xad12b3b5	-8.339042e-12
141	0x25bf35d0	3.3169683e-16
142	0xb4bde208	-3.5368453e-07
143	0xb7225e11	-9.677854e-06
144	0xba3a18b5	-0.00070990185
145	0xb16f821d	-3.4853038e-09
146	0xa6b64d64	-1.2649764e-15
147	0x30573bd6	7.8301576e-10
148	0xb383d634	-6.139126e-08
149	0x3496a503	2.805974e-07
150	0xb5c420eb	-1.4612718e-06
151	0xb4df34ac	-4.157531e-07
152	0xb20b37e3	-8.103572e-09
153	0xb09e39a1	-1.1512392e-09
154	0xb420f7d4	-1.499132e-07
155	0xb736a34f	-1.0886069e-05
156	0xb50a3273	-5.148242e-07
157	0x33ec6a0e	1.10088976e-07
158	0xae0e135d	-3.230426e-11
159	0xad96c894	-1.71421e-11
160	0xb0538274	-7.694674e-10
161	0xb7db999b	-2.6178363e-05
162	0xb72af1e4	-1.0189109e-05
163	0xb6dc4d99	-6.5655445e-06
164	0x328c2f25	1.6319584e-08
165	0xaf07b370	-1.2341927e-10
166	0xb37543b2	-5.7105076e-08
167	0xae85b9a4	-6.081116e-11
168	0xb45276dc	-1.9601015e-07
169	0xb7146d27	-8.846901e-06
170	0xb53cf8e5	-7.0397647e-07
171	0xb0ceabf7	-1.5037348e-09
172	0xb089989e	-1.0011438e-09
173	0xab8c8203	-9.983684e-13
174	0xaea85b6d	-7.655996e-11
175	0xb509572c	-5.116333e-07
176	0xb8ff5315	-0.00012174823
177	0xb2643bfd	-1.32849864e-08
178	0xb40e753b	-1.3267429e-07
179	0xb1dac678	-6.3671983e-09
180	0xa9821ccd	-5.778156e-14
181	0xb070f38d	-8.76576e-10
182	0xb4cbd10d	-3.79638e-07
183	0xb234b1ea	-1.0517832e-08
184	0x316b7735	3.4264762e-09
185	0xb65b4fe2	-3.268004e-06
186	0xad05fc50	-7.616199e-12
187	0x2e458c95	4.4917476e-11
188	0xb0946bfb	-1.0799107e-09
189	0xb29e9c1c	-1.8464611e-08
190	0x2dcd2b21	2.3324955e-11
191	0xb14eac69	-3.007495e-09
192	0xb4252eaf	-1.5383806e-07
193	0xa512fa51	-1.2748292e-16
194	0xb2a247d7	-1.8891951e-08
195	0xb12e8916	-2.5398257e-09
196	0x9891213d	-3.7515184e-24
197	0x00f0a0a9	2.2098153e-38
198	0xa598dfc2	-2.651942e-16
199	0xb3bcea23	-8.7970214e-08
200	0xb4cbc2a1	-3.7953308e-07
201	0xaacf20c8	-3.6793333e-13
202	0xa93acaac	-4.1476086e-14
203	0xb1cd15be	-5.968757e-09
204	0xb62a7152	-2.5397935e-06
205	0xabbeea1b	-1.3565289e-12
206	0x35948617	1.1065885e-06
207	0xb67f0f5c	-3.8006901e-06
208	0xb8d745a1	-0.00010264968
209	0x32180f2e	8.851016e-09
210	0xac45ec6c	-2.8126624e-12
211	0xb33ed5c8	-4.4432255e-08
212	0xb99e7960	-0.0003022654
213	0xbb3d35cc	-0.0028871177
214	0x381b3844	3.700728e-05
215	0xb7d2a216	-2.5109428e-05
216	0xb5ef2692	-1.7818113e-06
217	0x819f944e	-5.862018e-38
218	0x2e3d4226	4.3032376e-11
219	0xb49319ac	-2.7399562e-07
220	0xb8937dd3	-7.032943e-05
221	0xb8e47d4d	-0.00010895226
222	0xb79f144c	-1.8963729e-05
223	0xad09a8e9	-7.825054e-12
224	0x811f976e	-2.9312333e-38
225	0xb1944787	-4.3154986e-09
226	0x36d21738	6.2611907e-06
227	0xba417fe1	-0.0007381421
228	0xba80bc8c	-0.0009821816
229	0x38ae6a14	8.316725e-05
230	0xb285fe79	-1.5598959e-08
231	0x94e34a85	-2.2950535e-26
232	0xb006f51b	-4.909723e-10
233	0xb3c7767a	-9.2882104e-08
234	0x37ea24db	2.7912136e-05
235	0xba31d3c3	-0.0006783569
236	0xb70c88cb	-8.3765e-06
237	0xa87983f4	-1.38508894e-14
238	0xa4f89a4d	-1.0781425e-16
239	0xa29c77d3	-4.2410754e-18
240	0xae66eec8	-5.2508026e-11
241	0xb4b1b08d	-3.3097277e-07
242	0xb309f45b	-3.2120038e-08
243	0xb26f5893	-1.393177e-08
244	0x9e970527	-1.5989878e-20
245	0xaa9217c4	-2.59513e-13
246	0xb32f26f6	-4.0780797e-08
247	0xb6334fdb	-2.671956e-06
248	0x335f79b4	5.2031922e-08
249	0x3083b035	9.581586e-10
250	0xb01d9376	-5.732582e-10
251	0x9711fcea	-4.717125e-25
252	0xb02dd253	-6.323592e-10
253	0xb5068dce	-5.0125243e-07
254	0x38159ced	3.5670517e-05
255	0xb9ac34cc	-0.00032845733

fc1.bias f4 [64]
0	0xb7feaf4c	-3.0360789e-05
1	0xbdd1159c	-0.102092
2	0xbd3ef9ca	-0.046624936
3	0x3d6d1006	0.05787661
4	0x3d25598a	0.040368594
5	0x3ebe72ab	0.3719686
6	0x3dc41184	0.09573653
7	0x3daefa81	0.085438736
8	0xbc892dab	-0.016745409
9	0x3e7303bf	0.23731898
10	0x3ead74f2	0.33878285
11	0xbcccc569	-0.024996476
12	0x3e75d826	0.24008235
13	0x3e3b0f27	0.18267499
14	0x3df279d9	0.11839647
15	0x3e0efd52	0.13963822
16	0x3d93c151	0.072146066
17	0xbc1c0499	-0.009522581
18	0x3db4b4bc	0.08823535
19	0x3d4d1424	0.050068036
20	0x3ebf2405	0.37332168
21	0x3df045e1	0.11732078
22	0x3b9b1590	0.004732795
23	0x3c5e9faf	0.013587876
24	0x3c756e68	0.014979936
25	0xb5f371b0	-1.8137998e-06
26	0xb92081ef	-0.00015307193
27	0x3e003e59	0.12523784
28	0xbcc8fd59	-0.024534868
29	0x3e7ff181	0.2499447
30	0xbe22b7a6	-0.15890369
31	0x3dae87d1	0.08521999
32	0xbb7bd6fc	-0.0038427701
33	0x3e57709f	0.21039055
34	0xbd0a396b	-0.033746164
35	0xbd76c420	-0.060245633
36	0xbae5d447	-0.0017534577
37	0x3e47246b	0.19447486
38	0xbd3a0212	-0.04541213
39	0x3e588b63	0.21146922
40	0x3d0c483a	0.034248568
41	0xb8134c22	-3.5118435e-05
42	0xbd4b7b52	-0.049678154
43	0x3db38198	0.087649524
44	0x3e4af15e	0.19818637
45	0x3deca1d7	0.11554306
46	0x3d62c475	0.055363137
47	0x3dd27510	0.10276234
48	0x3ec04c57	0.37558243
49	0x3ec2d0be	0.38049883
50	0xbd0d7dfd	-0.03454398
51	0x3cc2b266	0.023766708
52	0x3d8086d0	0.062757134
53	0xbc335c53	-0.010947305
54	0xbd976c4c	-0.07393703
55	0xbdf22435	-0.11823312
56	0x3e8cc2be	0.27492326
57	0x3eb7b3a5	0.35879245
58	0xbbd14b77	-0.00638717
59	0xbd55cf87	-0.052199867
60	0x3e8b64e2	0.27225405
61	0xbd376101	-0.044770245
62	0xbdd3c2d7	-0.10339897
63	0x3ee6f863	0.4511138

fc2.weight f4 [10, 64]
0	0xb97a6a8b	-0.00023881548
1	0x3dd67702	0.10471918
2	0x3d7bff94	0.061523035
3	0xbe1b4c36	-0.15165791
4	0x3a3e83cf	0.0007267566
5	0x3e5730aa	0.21014658
6	0xbdcd74b2	-0.100320235
7	0x3e1ee7e6	0.1551815
8	0x3e1d2d40	0.15349293
9	0xbeadcfcb	-0.33947596
10	0x3e29886b	0.16555946
11	0xbc7fc5e7	-0.015611148
12	0xbdad0d82	-0.08449842
13	0xbe47e995	-0.19522698
14	0xbc21946c	-0.009862047
15	0xbec3981d	-0.3820199
16	0xbeaffa17	-0.3437049
17	0x3997588c	0.00028866937
18	0x3e3f6b72	0.18693331
19	0xbea15332	-0.31508785
20	0x3e8a77dd	0.27044573
21	0xbc230c36	-0.009951642
22	0xbedc6104	-0.43042767
23	0x3e4f87c3	0.20266633
24	0x3d7080ac	0.05871646
25	0x38463567	4.7256613e-05
26	0xb8071032	-3.220159e-05
27	0xbe5f7d94	-0.21825248
28	0x3d905abd	0.07048557
29	0xbd86468a	-0.06556423
30	0xbedaa2ee	-0.4270243
31	0x3db5ebe7	0.088828854
32	0xbd0c8c61	-0.034313563
33	0x3e90cd2f	0.28281543
34	0xbebe52a6	-0.3717243
35	0xbe714003	-0.23559575
36	0xbef5fb2a	-0.48043185
37	0x3e352b0f	0.17692207
38	0xbddfae4c	-0.10921916
39	0xbe9c077f	-0.3047447
40	0xbeb6478c	-0.3560146
41	0xb99fbb7a	-0.00030466524
42	0xbe53c149	-0.20679201
43	0x3df17189	0.11789233
44	0xbed28595	-0.4111754
45	0x3e2bc534	0.16774446
46	0x3cd9876e	0.026553836
47	0x3e295e51	0.16539885
48	0x3e26c261	0.16285087
49	0xbef36f82	-0.4754601
50	0x3daf53b3	0.08560886
51	0xbe90c7fb	-0.28277573
52	0x3ded0030	0.115723014
53	0x3cda139c	0.026620679
54	0xbe936f52	-0.28795868
55	0xbe821948	-0.25409913
56	0xbe5adcc1	-0.21373273
57	0x3e66733d	0.22504897
58	0x3d347c4c	0.04406385
59	0xbe0046cc	-0.12527007
60	0xbeea4bac	-0.45760858
61	0x3e1af9f2	0.15134409
62	0xbf012708	-0.5045018
63	0xbf0797ce	-0.5296601
64	0xb7c2d316	-2.3224897e-05
65	0xbe86a670	-0.26298857
66	0xbe88f9fa	-0.26753217
67	0xbd36c922	-0.04462541
68	0xbf195b37	-0.5990481
69	0x3e2cfc1b	0.16893046
70	0x3e2d3682	0.16915324
71	0xbd8a0102	-0.067384735
72	0xbe4bb6e6	-0.19893989
73	0x3e3fb1a5	0.1872011
74	0x3e001dcb	0.12511365
75	0x3cbe883a	0.023258317
76	0x3daf850f	0.08570301
77	0x3e1963f2	0.14979532
78	0x3e73b4cd	0.23799439
79	0x3d9de9a3	0.07710578
80	0xbd35391c	-0.044243917
81	0x3b4b41ca	0.0031014555
82	0xbd97ea0e	-0.07417689
83	0x3dcec762	0.10096623
84	0x3e6309cd	0.22171707
85	0xbd751628	-0.059835583
86	0x3d1f89a1	0.038949613
87	0xbe29eb1a	-0.1659359
88	0xbe541881	-0.20712472
89	0x388ec748	6.808207e-05
90	0x39a108ef	0.0003071497
91	0x3dee81f1	0.11645878
92	0xbe749123	-0.2388349
93	0x3e49412f	0.19653772
94	0xbd9b56c5	-0.07584909
95	0xbe341432	-0.17585829
96	0xaded8729	-2.7003804e-11
97	0x3b35b058	0.0027723517
98	0xbd9d268a	-0.07673366
99	0x3dc8c74b	0.09803637
100	0xbe8c90b2	-0.27454144
101	0x3dbe2a6f	0.09285437
102	0xbe4e59b4	-0.20151407
103	0x3e219ce2	0.15782502
104	0x3e375c36	0.1790627
105	0xb90cb6a4	-0.0001341948
106	0xbeb86eba	-0.36021978
107	0xbebd561d	-0.36979762
108	0x3dcdd55c	0.10050461
109	0xbefa6345	-0.48903862
110	0x3d23b1c9	0.03996447
111	0xbe6fec4d	-0.23429985
112	0x3df28856	0.1184241
113	0x3ec27b2b	0.37984595
114	0xbede4ae5	-0.43416515
115	0xbe4e8176	-0.20166573
116	0xbebddaa4	-0.37080872
117	0x3cb7ffd4	0.022460856
118	0xbe285339	-0.16437997
119	0xbe81bb1f	-0.25338075
120	0x3e4e8ea8	0.20171607
121	0x3e168b7b	0.14701645
122	0x3bc2eedc	0.0059488844
123	0xbc83b7aa	-0.016078789
124	0x3e0a9a91	0.13535525
125	0xbde00036	-0.1093754
126	0xbe8e3fe0	-0.27783108
127	0x3f0b2563	0.5435392
128	0xbb4755b3	-0.003041607
129	0x3dbe1d6c	0.092829555
130	0x3da5285d	0.08064339
131	0x3e138054	0.14404422
132	0xbec638bf	-0.3871517
133	0x3e4511b4	0.19245034
134	0x3e033e5e	0.1281676
135	0x3c6c0c40	0.0144072175
136	0x3e384b18	0.17997396
137	0x3e393b9e	0.18089148
138	0xbea13d42	-0.31492049
139	0x3b2a1df0	0.0025957786
140	0xbe98eb5a	-0.2986706
141	0xbda71a52	-0.08159317
142	0x3c769490	0.0150500685
143	0xbee9ebf7	-0.4568784
144	0xbdd7142e	-0.10501896
145	0xbbf0544d	-0.007334268
146	0x3e4933c7	0.19648658
147	0x3e110060	0.141603
148	0xbe83dc7a	-0.25754148
149	0x3ea97668	0.3309815
150	0xbe0cafe1	-0.13738967
151	0xbc50131c	-0.0126998685
152	0x3c463a73	0.012098896
153	0x3b814fb1	0.0039462675
154	0xb9811f22	-0.00024627993
155	0xbea3b3a1	-0.31972983
156	0xbca59cb6	-0.020216327
157	0xbe4354a5	-0.19075258
158	0x3cd949f7	0.026524527
159	0x3e550387	0.20802127
160	0xb5063fe7	-5.001188e-07
161	0x3c056b56	0.008143267
162	0x3dbda80b	0.09260567
163	0x3e515199	0.20441283
164	0xbe87da2d	-0.26533642
165	0xbe1abcb7	-0.15111051
166	0x3c58628d	0.01320709
167	0x3c008d39	0.00784617
168	0x3e352eaf	0.1769359
169	0xad49ef40	-1.1478651e-11
170	0xbe51eadc	-0.20499748
171	0xbe522576	-0.20522103
172	0xbdb09f70	-0.0862416
173	0xbe99fc33	-0.30075225
174	0x3cd7fc20	0.02636534
175	0x3e24fe9a	0.16112748
176	0xbea95f80	-0.33080673
177	0x3d7d24b0	0.061802566
178	0xbdb949be	-0.09047268
179	0x3da05859	0.07829351
180	0xbe72cff0	-0.23712134
181	0x3d77e338	0.060519427
182	0x3dd41c86	0.10357003
183	0xbd413ca6	-0.04717698
184	0xbe733616	-0.23751101
185	0xbe7c43ad	-0.24635191
186	0x3da5cdeb	0.08095916
187	0x3dfad796	0.12248151
188	0xbea19e5b	-0.31566128
189	0x3e431c5c	0.19053787
190	0xbe9d8822	-0.30767924
191	0xbde218af	-0.11039864
192	0xbb01d457	-0.0019810402
193	0xbe2f0613	-0.17092161
194	0x3dd059b2	0.10173358
195	0x3e14d0bb	0.1453275
196	0xbee75582	-0.45182425
197	0xbe39608c	-0.18103236
198	0xbe9d179a	-0.3068207
199	0xbd8166e0	-0.0631845
200	0xbe85e3de	-0.2615041
201	0x3e3d58dd	0.1849093
202	0xbee6fd9b	-0.4511536
203	0xbcfbbdd2	-0.030730162
204	0xbef1f5fa	-0.47257978
205	0x3df6aa5e	0.12044214
206	0x3cd54d1e	0.026037749
207	0xbe3d5f23	-0.18493323
208	0xbdb36f10	-0.08761418
209	0x3c1fcbd1	0.009753183
210	0x3e62cfd1	0.22149588
211	0xbe3f8cd6	-0.18706068
212	0xbe9a8f10	-0.30187273
213	0xbe675488	-0.2259084
214	0x3dcdb515	0.10044304
215	0xbe5ee593	-0.21767263
216	0xbd96658d	-0.07343588
217	0xb746e23e	-1.1854396e-05
218	0x3a854ec9	0.0010170575
219	0x3df3b096	0.118989155
220	0x3daa75f4	0.08323279
221	0xbf12a953	-0.5728962
222	0x3e1c49dd	0.15262552
223	0xbe57ff1e	-0.21093413
224	0xb0dff7c7	-1.6295808e-09
225	0xbcb18101	-0.02166796
226	0x3e006854	0.12539798
227	0x3e3c9c4a	0.18418995
228	0xbe5a2d2f	-0.21306299
229	0xbe94cae2	-0.29061037
230	0xbe39c297	-0.18140636
231	0xbeb8dd86	-0.3610651
232	0x3e21ef28	0.15813887
233	0xb8145315	-3.5363326e-05
234	0x3e0cc451	0.13746764
235	0x3e0faba8	0.14030325
236	0x3e235b19	0.1595272
237	0xbebdb5e6	-0.3705284
238	0x3c30791a	0.01077106
239	0xbe4cc067	-0.1999527
240	0xbea22d5f	-0.3167524
241	0xbe0fc42f	-0.14039682
242	0x3ddee362	0.108832136
243	0xbcc5631e	-0.024095114
244	0x3d7cf773	0.061759423
245	0x3cb479b0	0.022030681
246	0xbe5e400b	-0.21704118
247	0xbebbb6bc	-0.36662853
248	0xbe68481b	-0.22683756
249	0xbe95d322	-0.29262644
250	0xbc101eef	-0.008796438
251	0xbe049591	-0.1294768
252	0xbe7e5a55	-0.24839146
253	0xbd37524b	-0.044756215
254	0x3e218c13	0.1577609
255	0xbe338884	-0.17532545

fc2.bias f4 [10]
0	0x3dd1e349	0.10248429
1	0x3e35efe5	0.17767294
2	0x3e1bff07	0.15234004
3	0x3da50c51	0.0805899
4	0xbdcf9787	-0.101363234
5	0x3f0b43d7	0.5440039
6	0xbf22675c	-0.63438964
7	0xbe2f9528	-0.17146742
8	0xbe07b96c	-0.13254327
9	0xbe40f445	-0.18843181
