models/mnist_cnn.16.10.98.pth (torch, 430773 bytes, 16 tensors)

conv1.weight f4 [16, 1, 3, 3]
00000000: a600 153e 8924 e2bd 2709 e2be 121e 803e
00000010: 5b92 143e 8234 c6bc 4241 793d 4f38 cb3d
00000020: c64e 893d 3283 833c 17f0 643e 7e8a f83d
00000030: 6eea 82be 96c9 093e 6806 843c d13a a2be
00000040: 0ab1 73be c51f cabe 1181 b83e d366 5e3e
00000050: f3f1 b43c 6339 81bc 4789 683d 9257 113e
00000060: b99e f53c 4bc9 ec3d 7764 583e cf0d 973d
00000070: 0ff8 26be 5cae ad3d 878b 4abe a0a3 16be
00000080: 7449 ae3e 3931 38be 4416 4cbe e6b4 9c3e
00000090: 4602 b0be 0ba2 44be 0926 b13d b2fa f43a
000000a0: 4a97 c13e 8603 1e3e bd31 053e 2dee 28bd
000000b0: 7f8f 18be 158e 12bd 101e f23d ce79 953d
000000c0: 8d99 123e 808c 9b3e 94f3 bfbc e3e4 d13b
000000d0: dbb4 8bbd 95e6 debe fa6a a8be 48e0 a9be
000000e0: a25e efbd 05fe a5be 9859 933d a8aa c43b
000000f0: ace2 c5bd adfe 843e 425c 9a3e 7781 313e
00000100: e505 503d 2d7e 423e d1fd 31be 1edf 453e
00000110: 8b4e 793e e4eb d7be c432 9a3c 6fdc 5e3e
00000120: 9a17 eabb ae3b 45be f662 04bf 5fee 75be
00000130: c6c5 13be 9ac2 673d fc80 60be 32e3 6d3d
00000140: eecc 053e 6586 8a3a 95c5 e23d 42a5 513e
00000150: 3a92 5abe 8f7a f73d ce0e 6a3e 226a cebe
00000160: 6c5b ccbe 31c5 83be 2465 28bc 6cf5 8c3c
00000170: f695 59be e5f3 893e a7d2 39be 5d5f cdbd
00000180: ba1c 783e 622a 7fbe a950 a2bd 82e2 62bc
00000190: 92c3 103e 4541 d2be 5ecf 043e db3e a9bd
000001a0: 774d 2ebe c282 313e fdfa b33e 2e93 2a3e
000001b0: 9bb2 debd 0d14 8fbd 8199 a03d 1b21 243d
000001c0: cd54 663e 28ee 2fbe fb80 073f 5969 213e
000001d0: 3927 213e 654e a4be 4bf5 3dbe f218 573e
000001e0: ad07 4dbe afda ffbc 7698 973e 6f7b 69be
000001f0: ebf1 43be e655 a53d ed3b b5be cf0f cdbd
00000200: c930 4bbe 843d a73e 9df9 5abd c53f 14be
00000210: cebf bbbd 4c38 763e 741c cebd 48a0 84be
00000220: 5139 8d3e 9539 cbbd 91d6 8f3d e119 923e
00000230: 57c1 aa3c 4b9f 40be 9000 a43d 3e1e 6e3e
0.14551029 -0.11042125 -0.44147608 0.25022942 0.14508955 -0.02419496 0.06085325 0.099228494
0.06704478 0.01605377 0.22357212 0.1213579 -0.2556948 0.13455805 0.016116336 -0.31685498
-0.23798004 -0.39477363 0.3603597 0.21718912 0.022088027 -0.015774434 0.056771543 0.14193562
0.029982911 0.11561831 0.21132074 0.07375681 -0.16305564 0.08480522 -0.19779788 -0.14710855
0.34040415 -0.17987527 -0.19930369 0.30606765 -0.34376734 -0.1920244 0.08649833 0.0018690436
0.37810737 0.15431032 0.13007255 -0.041242767 -0.1489849 -0.03578003 0.1182214 0.07298623
0.14316387 0.3038063 -0.023431577 0.0064054593 -0.06821605 -0.43535295 -0.32894117 -0.33178926
-0.11687972 -0.32420364 0.07194823 0.006001789 -0.09662375 0.25975552 0.30148512 0.17334543
0.05078687 0.18993445 -0.1738198 0.19323394 0.24346368 -0.42172158 0.018823035 0.21763776
-0.007143927 -0.19261047 -0.517135 -0.24016713 -0.14430913 0.05658207 -0.21924204 0.058078
0.13066456 0.0010568617 0.11072842 0.20473197 -0.21344844 0.12083923 0.2285721 -0.40315348
-0.399135 -0.25736383 -0.01027802 0.01720687 -0.21248612 0.2694389 -0.18146764 -0.10027955
0.24229708 -0.24918512 -0.07925541 -0.013847949 0.14137104 -0.41065422 0.1296973 -0.08263942
-0.17021738 0.17335036 0.35152426 0.16657707 -0.1087391 -0.06986246 0.078417785 0.040070634
0.22493286 -0.17180693 0.52931184 0.15762843 0.15737619 -0.3209106 -0.18550603 0.2100561
-0.2002246 -0.031232206 0.29608506 -0.22800992 -0.19135253 0.080730245 -0.35397282 -0.10012781
-0.19842829 0.3266412 -0.053460706 -0.14477451 -0.09167443 0.24044913 -0.10064021 -0.25903535
0.2758279 -0.09923092 0.07023347 0.2853537 0.020844145 -0.18810765 0.0800792 0.23253724

conv1.bias f4 [16]
00000000: cffe 483a 520e cabb 5c1d 40bc abf4 a43b
00000010: 4979 3c3b e1e2 853c 6714 353c 779f 233c
00000020: d7e6 fa3c ff5d 43bc e892 b6bc 6547 bcbc
00000030: 5bec 29bc 7e07 67bc cc05 023d 2076 a63c
0.0007667364 -0.006166258 -0.01172575 0.0050340495 0.0028758815 0.016343536 0.011052228 0.00998675
0.030627651 -0.011924266 -0.022286847 -0.022983262 -0.010371293 -0.014100907 0.03174381 0.020319998

bn1.weight f4 [16]
00000000: cc81 553f faab 993f 32c5 4b3f 5422 433f
00000010: 12bc 523f 040b 5a3f 2d55 933f 7a1e 473f
00000020: 68bd 743f 0940 913f e8a8 803f 53dd 383f
00000030: 5fd7 253f 5216 8f3f 4bff 8b3f a1e0 433f
0.8340118 1.2005608 0.7959777 0.76224256 0.8231822 0.8517306 1.1510369 0.7778088
0.9560151 1.1347667 1.0051546 0.72212714 0.64781755 1.1178687 1.0937284 0.7651463

bn1.bias f4 [16]
00000000: 6267 a2be ea1f eabe 76e3 1abf 65e4 78be
00000010: c555 43bf 1365 9fbe 6565 b3be e84a c9be
00000020: bec2 03bd 84f0 acbe f7f2 21be 00aa 4bbe
00000030: b164 083e 1d71 e3be 0008 d3be 9545 f2be
-0.317195 -0.45727473 -0.6050333 -0.24305876 -0.7630275 -0.311318 -0.35038295 -0.3931496
-0.032168142 -0.3377725 -0.1581534 -0.19889069 0.1331966 -0.44422236 -0.4121704 -0.47318712

bn1.running_mean f4 [16]
00000000: 1790 2cbb 0c0e e7bc 0572 733c 1009 583c
00000010: 2717 f0bb 1f9a b43b 5263 17bb fd70 883c
00000020: cb58 ed3b a860 f6bc 299f c7bc b266 90bc
00000030: f4de 3f3c 5d26 ccbc 19d7 583c 110f 903c
-0.0026331001 -0.02820494 0.014858727 0.013185754 -0.0073269787 0.0055115367 -0.002309997 0.01665544
0.007243251 -0.030075386 -0.024367886 -0.017627094 0.011710871 -0.024920637 0.013234877 0.01758531

bn1.running_var f4 [16]
00000000: 3da1 693e 8d80 123f 56d0 523f afcd 813e
00000010: 43d9 0f3e 2a06 5d3e 9768 363f 4ffa d83e
00000020: 4938 703f 1591 1d3f 04e5 733e 98e6 943e
00000030: a13b 2b3f 99e3 073f 0142 683e ad01 723e
0.22815414 0.572274 0.82349145 0.25352237 0.14047723 0.21584383 0.7125334 0.4237847
0.93835884 0.615495 0.23817831 0.2908218 0.6688786 0.5308166 0.22681428 0.23633452

conv2.weight f4 [32, 16, 3, 3]
00000000: b648 d5bc dbcd f1bd 3093 a2bd 3596 3ebe
00000010: e079 85bc aeb3 083d e28a f5bd 1240 483d
00000020: 2dad 0a3e 6d61 75be 44ef 92be b07b a73d
00000030: be75 30be 022b f23c 3ad3 003e 77a5 31be
00000040: acd6 72bd 9463 40bd a2d5 45be dde2 cabd
00000050: 3fd1 0dbd 1c25 81bd 537a 8b3d 3143 99bc
00000060: 49cc 443b c4b8 b7bc 8525 0cbe 49fe 58bc
00000070: c09a 37bd 7271 fd3c 81c1 aa3d 83b1 05bc
00000080: 924f 23bc 6206 0f3d 0303 9d3d d47a 833c
00000090: 78c1 05be 16e0 0c3d b911 933d b94a 1dbe
000000a0: 47dd 5e3d 4049 313d 26df 79bd b8c9 813d
000000b0: bb65 11bc 4d8e 51be 0b32 09be 751e 8a3d
000000c0: c88b 30be 9750 79bd b881 b73d bb02 fdbd
000000d0: bf8c fa3d 881d 823d 19bc 50bd 80f1 a23d
000000e0: a2ac f13d f734 f6bc 1ab0 1fbd d725 103e
000000f0: 6331 4c3d 7932 793d c423 f1bb 70c8 ffbd
00000100: 5d52 84bd 7039 f8bc 8247 973d 4a16 463c
00000110: 9322 e73c 9e1f 1c3a c569 58bc bdde 8fbe
00000120: 34ee b13d 5add cb3d cd39 053c c082 d93d
00000130: 5e71 debc 32d9 f8bd 340c 303e 00e1 04bd
00000140: f4c6 2f3c 770a 03be 71ea 84be 0730 8d3d
00000150: b9c6 3abe 3d12 953c 674f ca3d a657 40be
00000160: d1ba b4bc 40a4 f6bd 96ac c4bc 1119 1ebe
00000170: 6530 14be c76e e73b 18b4 28bd 2039 183d
00000180: 4f85 823d 4012 c43d 199a 1f3e 568e 0cbe
00000190: adf5 41bc bb34 3a3d 97b1 71bd 8c03 063d
000001a0: 15b7 c03c e77c c8bd 8c9b 333d 81f6 99bd
000001b0: bfa6 69be 7831 693b ae40 643d dc56 c7bd
000001c0: 35f8 8b3d 2d56 4c3d 1064 8bbb 6003 ea3d
000001d0: 232d 35be 4737 49bd d2f7 3fbe 8b16 9239
000001e0: 7950 cc3d 718f cdbd de5a c83c 2958 a73d
000001f0: 0927 e13d 0ba2 043d d9f1 2abe b92b 473d
00000200: 406f 5ebc 4415 2dbe 215e 093d e7b4 1dbd
00000210: 0e38 98bd 5d84 01bc c115 bfbc 9b35 11be
00000220: 1d06 aabc bfa0 4ebc eaba 2ebd ac70 2d3d
00000230: 5c69 edbc 3a81 9e3d 28df 593b fcfd 02be
00000240: da30 113d 4f01 873d 07e8 18be c4d2 b73d
00000250: 102b 7fbd 23c7 a5bd bb24 4e3b e664 ddbd
00000260: ac10 1f3d e7cb 52bd 9319 9cbc 21d1 41bd
00000270: e5c4 8a3d 67e8 45be 1c72 4cbd e9f6 273c
00000280: 3e12 17be bde0 9e3d dcd3 203e 58df e1bc
00000290: 0503 5cbe c182 aa3d 4e3b b4bd aaf4 95bd
000002a0: 0374 43bc e67e 39be b5bf 043e 2d92 e3bd
000002b0: c05c 4f3d a9a0 44bc 6a34 a0bc 0c1c 5abd
000002c0: 3eec 243c 8bdb f6bd 39c2 393c 8ef8 323d
000002d0: cc54 11bd 7ead efbd 8bd2 81bd f376 de3c
000002e0: e2d1 f2bd 2d9d f33c 4291 d53c c05e 28be
000002f0: 69c4 df3d 89c4 8ebc 50ff a6bd 101f 19be
00000300: e6b9 1e3e 077a 06bd edeb 20be afda cc3d
00000310: 0b53 bebd dead babd d94c c2bd 71ed cfbd
00000320: 41a3 f8bb 2d97 b63d 25e9 01be 95b3 283d
00000330: 1b16 96bd a865 8abd ee65 3f3d 140a 2f3c
00000340: bdfd dcbd 11f7 d6bd 7ac3 54bd f12e 04be
00000350: f995 a93c 57de bebd 081d e73a 8ba7 993d
00000360: cfad 50bd 9d53 8a3d baa4 713d 7972 c7bd
00000370: 0f58 5f3d ce35 8cbd 8a60 943d 2995 aa3d
00000380: 19ea 83bd 0776 ffbd a84e cc3c b98f 81bd
00000390: d99f a93d 5775 90be 07c6 cd3c 250b 05be
000003a0: 432a 0fbe 3807 b83d cea3 a83d 6618 8b3c
000003b0: be11 f1b9 a2b3 813d 1c61 b63c aaf8 11bd
000003c0: 62a9 9bbd e66b 583d fdb9 963d c531 f43d
000003d0: e457 e2bb 1c0e 20be f106 af3d 1b77 a5bd
000003e0: 2cd2 1abc 86fd cbba eba8 c1bd 19f4 8c3c
000003f0: 5ae2 e53d 08ca 9dbd 5544 f5bd 4dcd 043e
-0.026035648 -0.11806842 -0.0793823 -0.18611987 -0.016293466 0.03337448 -0.119893804 0.048889227
0.13542624 -0.23962946 -0.2869817 0.081778884 -0.17232415 0.029561523 0.12580577 -0.17348276
-0.05928676 -0.046969965 -0.19319776 -0.09906552 -0.03462338 -0.06305906 0.06810441 -0.018708797
0.003002899 -0.02242697 -0.13686188 -0.01324422 -0.044825315 0.030937884 0.08337689 -0.008159998
-0.0099677015 0.034918196 0.0766659 0.01604978 -0.13062084 0.034393393 0.07181115 -0.15360536
0.054410245 0.043282747 -0.061003827 0.06337303 -0.008874352 -0.2046444 -0.13397996 0.067440905
-0.17240822 -0.060867872 0.08960289 -0.123540364 0.122338764 0.06353289 -0.050960634 0.07956219
0.11800505 -0.030054552 -0.038986303 0.14076935 0.049851786 0.06083915 -0.007359 -0.12489402
-0.06461022 -0.030300826 0.07386686 0.012090275 0.028214728 0.0005955639 -0.013208811 -0.28099623
0.08688012 0.09954329 0.008131457 0.10620642 -0.027153667 -0.12150802 0.17192155 -0.03244114
0.010728586 -0.12796961 -0.25960115 0.06893926 -0.18239869 0.018197173 0.09878426 -0.18783435
-0.022061737 -0.12043047 -0.024008077 -0.1543925 -0.14471586 0.0070627662 -0.041187376 0.037163854
0.06373083 0.095737934 0.15586127 -0.13726172 -0.011838359 0.045460444 -0.059007253 0.032718226
0.0235248 -0.09789448 0.043849513 -0.0751772 -0.22817515 0.0035582464 0.055725746 -0.09733364
0.06834451 0.04988687 -0.0042538717 0.11426425 -0.17693 -0.049124982 -0.1874688 0.00027864086
0.099762864 -0.10037125 0.024457391 0.08171112 0.109937735 0.0323811 -0.1669382 0.04862568
-0.013576329 -0.16902643 0.033537034 -0.0385026 -0.074325666 -0.007905093 -0.023325803 -0.14180605
-0.020754868 -0.012611567 -0.042658724 0.04234378 -0.028980903 0.07739492 0.0033244584 -0.127922
0.03544698 0.065920465 -0.14932261 0.08975747 -0.062296927 -0.08094623 0.0031454999 -0.108102605
0.03883426 -0.051463988 -0.019055163 -0.04731858 0.06775836 -0.19326936 -0.04991351 0.010251739
-0.14753053 0.07757709 0.15705818 -0.027572319 -0.21485527 0.083257206 -0.08800374 -0.073220566
-0.011929515 -0.18114814 0.12963755 -0.11111865 0.050625563 -0.012001195 -0.019556243 -0.053249404
0.01006609 -0.12053593 0.01133781 0.04369407 -0.03548126 -0.11703013 -0.06338986 0.027156329
-0.11856438 0.029738033 0.02607024 -0.16442394 0.10926134 -0.0174277 -0.08154166 -0.14953256
0.15500602 -0.032831218 -0.15714999 0.10002648 -0.09293183 -0.09115194 -0.09487314 -0.1015271
-0.0075878208 0.08915553 -0.12686594 0.041186888 -0.07328435 -0.06757671 0.046728067 0.010683555
-0.10790584 -0.10496343 -0.051944233 -0.12908532 0.020701395 -0.09319752 0.0017632553 0.075026594
-0.050947007 0.06754229 0.058994986 -0.09738631 0.05452734 -0.068462 0.07244976 0.08329231
-0.06441135 -0.12473684 0.02493985 -0.06326241 0.08282442 -0.28214523 0.02511884 -0.12992533
-0.13980965 0.08985752 0.08234368 0.016979408 -0.0004598032 0.0633309 0.022263102 -0.035637535
-0.076006666 0.052837275 0.07359693 0.11923555 -0.00690745 -0.15630382 0.08546246 -0.08079358
-0.009449523 -0.0015563227 -0.09456047 0.017206239 0.11224814 -0.0770455 -0.11975924 0.12968941

conv2.bias f4 [32]
00000000: 18f8 59ba 20ec 9839 0012 13b7 1aed fa3a
00000010: bdee b2ba 411f be3a 7ba1 38ba 0838 c7b9
00000020: 0440 db39 0e7e 1d3a 5fa1 c6b8 f0b6 1239
00000030: 0e56 43ba 683d 1bba 63ad 133a 98e8 2fb9
00000040: 0cb6 5eba 58b0 dfba 6666 bf39 3e69 3b3a
00000050: e385 8ab9 6c13 89b9 e004 a136 21a9 b13a
00000060: 6272 efb9 1cb6 9d3a 0c2a 5dba bafd 123a
00000070: 6f40 2b3b 9eff c0ba a854 8639 b317 083a
-0.0008314862 0.00029167626 -8.766074e-06 0.0019144148 -0.0013651472 0.0014505164 -0.00070431054 -0.00037997984
0.0004181863 0.00060078583 -9.4714334e-05 0.00013991795 -0.0007451483 -0.0005921931 0.00056334416 -0.00016775948
-0.0008495755 -0.0017066104 0.00036506652 0.0007149166 -0.00026421165 -0.00026145147 4.7987414e-06 0.0013554433
-0.00045670854 0.0012032422 -0.00084367464 0.0005607266 0.0026130935 -0.0014724617 0.00025621546 0.000519152

bn2.weight f4 [32]
00000000: 5549 9e3f f031 a63f 8310 803f f292 aa3f
00000010: 452a b93f 44c5 9e3f af41 bb3f 10a1 923f
00000020: fdee a63f 7057 b83f 4852 973f 9354 953f
00000030: 731c 963f e28b 813f 8948 a73f 7c95 ae3f
00000040: 28ad 433f 4e78 9a3f b3e2 a73f 7707 753f
00000050: 70b1 8f3f 5509 7e3f 5366 9a3f 5d35 873f
00000060: c823 553f b17d be3f a9ef 8e3f 3f4e 833f
00000070: 4116 b43f c263 953f 31fe 903f 2e4a 9b3f
1.2366129 1.298399 1.0005039 1.3326094 1.4466025 1.2403951 1.462942 1.1455402
1.3041683 1.4401684 1.1821985 1.1666435 1.1727432 1.0120814 1.3069011 1.3639369
0.7643609 1.2067964 1.3116058 0.95714515 1.1226025 0.9923299 1.2062477 1.056316
0.8325772 1.4882108 1.1166888 1.0258254 1.4069291 1.1671069 1.1327573 1.2132013

bn2.bias f4 [32]
00000000: dc19 1bbf 862c 02bf 1d7b f1be 943d 0ebf
00000010: e9b5 11bf 3a1e 19bf ccef 42bf 7720 1bbf
00000020: e32b 0bbf fc27 22bf 00cd 06bf 5ec6 03bf
00000030: 6c60 1abf 1fbe 1abf 59d0 05bf 1963 05bf
00000040: 0fb1 45bf 87e6 25bf 24a6 30bf bf2e 5abf
00000050: 00fd 0ebf 5e3e 07bf 00aa 0ebf d7f5 1fbf
00000060: 4c3c 6dbf 2e24 28bf 082b f4be 4294 f9be
00000070: 4f27 41bf 9cf9 12bf 560d 15bf 140b d5be
-0.60586333 -0.5084919 -0.4716424 -0.5556271 -0.569182 -0.5981175 -0.7614715 -0.6059641
-0.5436384 -0.6334226 -0.52656555 -0.5147456 -0.6030338 -0.6044635 -0.5227104 -0.52104336
-0.77223295 -0.6480488 -0.6900351 -0.8522758 -0.558548 -0.5282954 -0.5572815 -0.62484497
-0.9267013 -0.65680206 -0.4768908 -0.48745924 -0.75450605 -0.57412124 -0.58223474 -0.41610014

bn2.running_mean f4 [32]
00000000: 2b50 52bf 0cd5 4cbf e783 23bf dfcc 30bf
00000010: 9a49 25bf 74d3 23bf 1220 17bf a30f 3bbf
00000020: 7b15 7dbf 4678 2bbf 4705 5ebf fc31 3fbf
00000030: 7186 6dbf 1ee6 1cbf 536d 9abf 04b8 5cbf
00000040: 2aec 2f3e b35a 19bf ec35 35bf 3005 f3be
00000050: ebaa 41bf b64c 21bf 47c0 cdbe 4543 6cbf
00000060: 85f3 26bf 0022 77bf 87b7 57bf 615a 41bf
00000070: e52e 1bbf 0c6a 9cbf 35e4 18bf 839d 93bf
-0.82153577 -0.80012584 -0.6387314 -0.6906261 -0.6456543 -0.63994527 -0.5903331 -0.73070735
-0.988609 -0.669804 -0.867268 -0.74685645 -0.92783266 -0.6128863 -1.2064613 -0.86218286
0.17179933 -0.5990402 -0.70785403 -0.47464895 -0.75651425 -0.63007677 -0.40185758 -0.92290145
-0.6521533 -0.96536255 -0.84264416 -0.7552853 -0.6061843 -1.2219863 -0.59723216 -1.1532444

bn2.running_var f4 [32]
00000000: 2a43 2540 5010 3740 1128 b53f d21c 1e40
00000010: fad0 c33f 4aa1 1240 7e74 bf3f 543c fb3f
00000020: 0d10 4740 8172 1040 63f5 4e40 456e 1340
00000030: 42f9 2540 c135 f73f 9af7 7e40 1642 2440
00000040: 7783 813f 74b1 983f 2087 1540 5c87 493f
00000050: 73c9 0f40 6749 9f3f fba8 0f40 c1a7 3640
00000060: e426 7e3f 6ae3 1640 4ee4 4b40 1245 a43f
00000070: 1add 863f eda3 3040 41cd ce3f a52b 5440
2.5822244 2.8603706 1.4152852 2.470509 1.529815 2.2910943 1.4957426 1.9627786
3.1103547 2.2569888 3.2337272 2.3036053 2.5933385 1.9313279 3.9838624 2.5665336
1.0118245 1.1929154 2.3363724 0.78722167 2.2466705 1.2444276 2.2446887 2.853989
0.9927809 2.3576303 3.1858096 1.2833579 1.0536225 2.7600052 1.6156389 3.3151639

fc1.weight f4 [64, 1568]
00000000: d74c 833d ca89 d63b ab4b c43d af76 833d
00000010: 9e3b e03c 6959 a5bb 4c16 fcbb 9639 dabd
00000020: 6293 7e3c 3aa0 ee39 c5e9 373d 6622 853d
00000030: f408 d0ba 5bd6 7c3d 3f19 81bd 2bd5 553d
00000040: 0fad 81bc 2ffa 333d 6a62 20bd 6a6d 0abe
00000050: 8bd4 bfbc f487 93bd 3a63 053d 7e8b 10bc
00000060: 5f77 073d 315f 7ebd 039a 54be dd95 d2bd
00000070: 1e6a 2abd d2c3 363d b24d 5b3c ed8a eabc
00000080: 50bc c0bd 618f c5bd 6591 45bd 8e19 10bb
00000090: 8cc2 ba3c 3dd4 d7bc 61f4 183c 9ef6 94bd
000000a0: d63b 0dbe fc61 7c3d 73f2 273d ff4e 533b
000000b0: f711 b7bc b156 12bd a1a9 13be 56f0 a73d
000000c0: a731 c83d 428e b13c d43f 833d d219 ba3b
000000d0: e3e7 c63d 9ff1 fd3d 9c3e 853d 2a7c 313c
000000e0: 0f79 ad3c ae96 233d 86e7 27bd c2a4 473b
000000f0: af77 55bc ea20 5dbd 82c6 bdbc 2d66 e83d
00000100: 6f79 85bb 65e4 bebd 30de efbb 93ea 7dbd
00000110: 5d84 c5bd 3c08 12bc 391e a13c fafc 6cbd
00000120: 7f1b 5dbd 3d89 86bd 78fc 1abd ad77 09bd
00000130: ec68 d3bc 52e0 aa3c c46f bb3b 1f11 fdbc
00000140: 3e0c dd3c de01 fd3c 729e 493c 33ae bf3b
00000150: 5f30 8c3c df85 19bc 707b a63c c8e0 e13d
00000160: a2bb 94bc 2407 823c 8b59 563c 9034 963c
00000170: 5277 cfbb ea29 8dbd f950 793d f3dd 9c3d
00000180: 34ca 1e3d fd2a b33c 4337 ad3c ec17 983d
00000190: 2c16 c53d df7d 243d db1b b73d bbae 613d
000001a0: f335 163b 77fc a73c 9810 be3c 4d5c 91bd
000001b0: 6784 14be 454f 40bd 4719 debc 098c 4bbd
000001c0: f06d 1a3c 8b3f 2b3d bcb2 8ebb 4509 7fbc
000001d0: 721b e0bd fa7c b4bd eac6 69bd 5727 f43c
000001e0: d681 053d a895 0d3c 5af5 ac3c a343 8cbd
000001f0: 15db e9bc e82c ed3c 6ed6 223c 15ae c23d
00000200: a6aa 113c 1f74 373c 24d6 433d eff3 083d
00000210: aea7 823d 692c dfbc 0384 4a3d 80dd a8bc
00000220: 5bb1 a83c e75e a7bc 44f5 5f3d 81f4 843c
00000230: 9bcd a83c 3e6b d4bd c7d4 803c 046f 13bc
00000240: f137 66bd 8ec3 fe3b bc73 9b3d 3572 0d3e
00000250: 2917 1d3e a762 c6bc 74ee fdbc 6bd0 c33c
00000260: 82c8 123e b0c6 303e f5fc c7bc 54b9 d8bd
00000270: 1ae3 acbe 7291 2bbe ed80 093e 67fa 7e3e
00000280: ac74 4a3e 32c1 a3bd ac6d f1bd 21ec 4ebe
00000290: 4716 d1bd b6c5 603d 9355 233e bfb3 783e
000002a0: cbf3 34bd c6f8 c6bd a4f4 0bbe 60a6 a2bd
000002b0: c1bf 97bc cb2f 5a3d 0c4f 9e3d 099a dfbd
000002c0: ecb8 16be 2ed9 dabd 777d 20bd 5341 533c
000002d0: f374 e2bd cab7 9bbd 80fb 96bd 8805 9dbd
000002e0: da57 bc3a 9eb7 9a3d 4525 a53d d619 a1bd
000002f0: 177c 2cbc 173b 5cbc dc91 51bb 61db 753d
00000300: 71b9 173d b459 803d 9c37 5cbc 1e68 793d
00000310: eb6e 6f3c f452 70bc b7de 4a3c e89c 853d
00000320: 219e 783d 9642 5e3d 9cd5 743d 4fe3 513d
00000330: 0ea8 04bb 0a90 c3bd 6715 ba3c 2d66 563e
00000340: 7ae1 6e3e 3690 073e 56f4 b83d db51 c0bd
00000350: a356 a6be f67a 53bd ee4c 483e ac86 313e
00000360: 3a71 153e 2e16 cbbc a194 f9bd 871c a5be
00000370: cea0 32be 90ab 403b 962a 79bb 0e8f c83c
00000380: a0e3 d63a 5333 06be 8910 57be abd3 47be
00000390: 5765 c0bd be25 efbc 9a05 1a3d 929f 2e3d
000003a0: e38b f3bd d0fe 26be 3003 67bd 4fbb 23bb
000003b0: 5e7b 61bb a2c3 993b 5245 253d 5551 a3bd
000003c0: 5a8d e93c 2f44 60bd 3ac6 be3c 3bb1 0f3d
000003d0: d8a5 423c cb73 30bd 013d b7bd 16a2 8fbd
000003e0: 9df5 cbbb ecf8 7b3c 8986 0bbd 37f0 05bd
000003f0: e84c edbd 877f 43bd 0da5 dbbd e33f 10bd
0.064111404 0.0065471875 0.09584745 0.064191215 0.027372178 -0.005046059 -0.0076930877 -0.10655515
0.0155380685 0.00045514276 0.044900674 0.065007016 -0.0015871809 0.061727863 -0.063036434 0.052205246
-0.015829591 0.043939766 -0.039156355 -0.135183 -0.023416778 -0.072036654 0.032565333 -0.00882232
0.033072826 -0.0621025 -0.20761876 -0.102824904 -0.041605107 0.044620343 0.013385223 -0.028630698
-0.09410918 -0.09646488 -0.048234362 -0.0021987888 0.022797845 -0.02634632 0.009335608 -0.07273601
-0.13792357 0.061616883 0.041002702 0.003224313 -0.022347433 -0.035727207 -0.14420177 0.08200137
0.097750954 0.02167428 0.064086586 0.0056793476 0.09712198 0.12399601 0.065060824 0.010832826
0.02117589 0.03993862 -0.040992282 0.0030463194 -0.013029023 -0.053986467 -0.023165945 0.113476135
-0.004073314 -0.093209065 -0.007320188 -0.061991286 -0.09644387 -0.008913096 0.019667732 -0.057858445
-0.0539813 -0.06569145 -0.03783843 -0.033561397 -0.025806867 0.020858917 0.0057201106 -0.030891953
0.026983377 0.03088468 0.012305843 0.0058496236 0.017112909 -0.009370296 0.020322531 0.11029202
-0.018155877 0.015872546 0.013082872 0.01833561 -0.0063313628 -0.0689276 0.060868237 0.07659521
0.038767055 0.021871084 0.021144515 0.07426438 0.096233696 0.040159103 0.0894086 0.055098277
0.002292034 0.020506127 0.023201272 -0.07097683 -0.14503632 -0.046950597 -0.027111663 -0.049694095
0.009425625 0.041808646 -0.004354803 -0.015566175 -0.10942735 -0.088129 -0.057074465 0.029803915
0.032594524 0.008641638 0.021113086 -0.06848838 -0.02854685 0.028952077 0.009938819 0.0950586
0.008890783 0.011197119 0.047811642 0.03343576 0.063796386 -0.027242856 0.049442302 -0.020613432
0.020592382 -0.020430995 0.054677263 0.01622987 0.020605853 -0.10372017 0.01572646 -0.008998636
-0.056205694 0.007774777 0.07590434 0.13813098 0.15340866 -0.024216963 -0.030997492 0.023903092
0.143343 0.17263293 -0.024412611 -0.105822235 -0.33767015 -0.16754702 0.13428088 0.24900208
0.1977107 -0.079958335 -0.117884964 -0.20207264 -0.10209327 0.05487605 0.15950613 0.24287318
-0.04417781 -0.097154185 -0.13667542 -0.0794189 -0.018524053 0.053268235 0.07729921 -0.10918052
-0.1471898 -0.10685955 -0.039182153 0.0128939925 -0.110574625 -0.07603414 -0.073721886 -0.076670706
0.0014369444 0.075545534 0.08063749 -0.07866256 -0.010527632 -0.0134418225 -0.0031977808 0.06002367
0.037042085 0.062671095 -0.013440993 0.06089031 0.014613847 -0.014668215 0.012382201 0.06524068
0.06069768 0.05426272 0.059774026 0.05124217 -0.002024177 -0.09548958 0.022715284 0.20937414
0.233282 0.13238606 0.090309784 -0.09390613 -0.32487974 -0.051630937 0.19560596 0.1733653
0.14593974 -0.02479085 -0.12186552 -0.32248327 -0.17444155 0.0029399134 -0.0038019768 0.024482276
0.0016394742 -0.13105516 -0.21002401 -0.19514339 -0.09394329 -0.029192802 0.037603 0.042632647
-0.11891916 -0.16308141 -0.056399524 -0.002498347 -0.0034405808 0.0046925107 0.040349312 -0.07974497
0.028509784 -0.054752525 0.023287881 0.03508113 0.011880361 -0.04307918 -0.089471824 -0.07013337
-0.0062243477 0.015379172 -0.03406385 -0.03269979 -0.11586934 -0.04772904 -0.1072484 -0.035217177

fc1.bias f4 [64]
00000000: da6b 3d3e 530a 09ba 78f3 0bbc 4389 cabc
00000010: 4065 e43d 5fab 27bc abba cfbc ba14 7e3e
00000020: 4cd7 b83c 5971 bd3d e4e1 8a3d a410 53bc
00000030: de13 f4bb 721b 5cbd b13b 313e a0a4 813d
00000040: 0f56 533e b3f2 1abb 6190 193e 4e3e 7e3e
00000050: 2ea7 2f3d 3201 6f3e 3fdf 05bc c5d5 6a3e
00000060: c9e9 fe3b e02d 82bc b586 593d 46c9 d73d
00000070: 6b54 cdbc b60c 3a3d ee37 153d a26c e83d
00000080: 16a2 ccbb bd64 123b 65ac 9cbb 6a15 093e
00000090: 96d8 363e e1f2 aa3b 82b7 cdbc 8b6e adbb
000000a0: 1e05 0fbc 8f84 39bd f722 ee3a 75eb 673d
000000b0: ceae 203e 2831 963a da48 783a de1a a8bd
000000c0: 8724 40bc 2425 1c3a e232 2e3c e173 4d3d
000000d0: f9d4 7abc aaed b3bc 1abb 12bd ed52 45bb
000000e0: d332 0f3e ad9c 103e e962 873b a1f4 e23d
000000f0: cf02 95bc 0258 cf3d 50e8 a6bb 063a a83c
0.18498173 -0.00052276737 -0.008541934 -0.024723655 0.111521244 -0.010233729 -0.025357565 0.24812594
0.022563599 0.09250135 0.067813665 -0.012882385 -0.0074486574 -0.05373711 0.17307927 0.06330228
0.20638297 -0.0023643195 0.14996482 0.24828455 0.042884044 0.233403 -0.008170902 0.22933109
0.007779334 -0.015891016 0.053106982 0.10536437 -0.025064668 0.04542228 0.03643029 0.11348845
-0.006244908 0.0022337877 -0.004781293 0.13387075 0.17856058 0.0052169417 -0.025111917 -0.0052927188
-0.008729247 -0.045292433 0.0018168379 0.056621034 0.15691683 0.0011458742 0.0009471305 -0.082082495
-0.011727459 0.0005956462 0.010632249 0.05015934 -0.015309566 -0.021963913 -0.035822965 -0.0030109242
0.13984232 0.14122267 0.004131664 0.110818155 -0.018189816 0.10124208 -0.005093612 0.02053548

fc2.weight f4 [10, 64]
00000000: a47a 1f3d 2cb1 1abc 7c32 1abd 6f8e db3b
00000010: 70a9 04bf 64ff b9bc db9b 80be c5b9 c7bc
00000020: 9e33 f53d 5a9a ad3d efbb 81be 8005 08bd
00000030: 2e9b 963c 783c b93d 7be5 4c3e 10aa 393e
00000040: 84e8 1b3e d514 33bc 0b6c 16be 5e09 853e
00000050: 3ef8 97be 3242 8cbe 6b40 15bd 27b9 75be
00000060: 0626 883d 69de 52be b683 363e 3884 0e3e
00000070: ed6d bbbe d293 153e 60d2 c6be 5a20 5fbe
00000080: e709 55bc 5cf2 15bd 70ca 82bd 3071 333e
00000090: a6f6 03be a783 babb a417 3bbe 17a1 45bb
000000a0: b019 a6be 082d 37be 6bfe 01bd 03be fcbd
000000b0: ea21 27bd a085 013e cc8d d6ba 852c 94be
000000c0: 4f2e 363d 1677 07be c796 683d 4e16 5f3c
000000d0: 1762 003e 2f41 bc3c 4ea9 883d 3269 e43b
000000e0: c2b0 a6be 4702 c33d ebbc e93c 787c f8bd
000000f0: a89b 13be 55cc 99be 37e9 493e 5987 403d
00000100: 3d93 d43d f7be 9bbb 3e9f d8be 3af4 de3c
00000110: ddb0 cb3d 503b 09bd defb 9bbb a92a 723e
00000120: 7dac 1cbe 2584 18be f552 ee3d 21b2 d1bd
00000130: e78b ed3c 6069 4cbe 3d9b df3d 3e08 a0be
00000140: bd8d ff3d 86d3 80b9 a355 593e 6d86 583e
00000150: 488f 12be 67bc 9d3e 750c 623a e99f 1b3e
00000160: d757 15be 6aee 59be 643e 86be e602 d9be
00000170: 28a3 f4bd 3024 d0be 7404 ed3d 74eb c93d
00000180: daf3 923b c0bd 973a d2db 72bd 98f3 80bd
00000190: 8ae0 5f3e 1c4f 8fbd b575 1abe 2112 19bb
000001a0: 4466 88bd f8e1 86be 7328 14bc d4d7 f83d
000001b0: 97a1 023e c936 75be 351e 20bc b4ea 57be
000001c0: 1111 bb3a f5db aebd fb06 01be 201e 74be
000001d0: 2158 703d b520 b3ba c401 2f3d be68 aebc
000001e0: a8b2 5d3d 1350 d53d 9e40 5cbd 086a a03b
000001f0: a561 d2bd 9e99 133e 2c09 a4be 495e 03be
00000200: eebe b3be 0285 d3ba 1291 56be 51c6 3b3d
00000210: 9efc 59be 5fff 55bd c5a9 e33d 74cc 66be
00000220: bd3b 67be 2e3f b03d d960 18be b99c 223e
00000230: 8751 2a3d 23e9 b73d 56b4 583d 4e4e f4bd
00000240: b3b1 103e 5464 11bc a6e9 3a3e 83a8 b8be
00000250: b9fb 3cbe 2d75 54be b44e 163d 3360 a4bd
00000260: ca6f a73d fe62 53be a7b6 843a e9c8 83be
00000270: e44f ad3d 4fd7 43be cd3a 66bb 08d1 203e
00000280: 9311 11bd 4743 463b 2ec4 0bbd 3cfe 633d
00000290: 91dd 8cbe f6f0 a63d 3a54 a8be 166a 123c
000002a0: 8a39 c53d da83 aabe 8557 29bc 0443 31be
000002b0: f8a2 8fbc 6fac e6bd 49dc a5ba 17b4 d13d
000002c0: 087a 00bc d73d c7bc 73dd a93d e72f 1bbb
000002d0: e2ce ec3d 8336 45bd f6fc ccbd 479e d13c
000002e0: 8c15 b43d 8a0d e93d 8a62 9dbd d68c d33d
000002f0: 6caf 4abc 2c3b 8dbe 0773 273e 9d7d c63d
00000300: 0a0f 83be 442a e0bb 7503 0abe ff95 803c
00000310: 1adc 8fbd a36d a93c 6f29 c53d a98b 9dbe
00000320: 8791 b9be 4dc9 68be ffa7 88be ac77 32bd
00000330: 570f 20bd 149a 843d 9893 0cbe 7d6c 6bbe
00000340: ecb2 16be 34eb 5fbb c136 71be b082 60be
00000350: 7eed 3a3e b185 77bd 81ec 2cbc 0f9f c9bd
00000360: 8dfc 92bd 36b4 fc3d 5e3a 00be d7bd b4be
00000370: d710 d63d 97c7 afbe 3357 103e c53a 203e
00000380: 399d bfb9 4bdc 283c 3a74 3abd f2d3 2c3e
00000390: 656f 96be c7aa 4e3d 296b 273e 3eff 24b6
000003a0: 1fc2 a1ba 4f51 d43d 9d3f 463b 7958 abbe
000003b0: e0d0 c0be d78a 063e 29f3 fb3c 08b4 46be
000003c0: 28b5 90bd 83a9 2d3e 76e7 0f3d 2b59 66bb
000003d0: f95a 20bd 5699 9cbc f1b7 89bd d7af 263a
000003e0: 8a69 b43d 9ac6 043e c488 5abd e052 e9be
000003f0: 9ed6 e1bd fa30 0abe ae2e f9bd 7202 bf3d
0.03893532 -0.009441655 -0.037645802 0.006700329 -0.5182104 -0.022704788 -0.25118908 -0.024380574
0.11972736 0.08476706 -0.25338694 -0.03320837 0.018384542 0.090447366 0.20009415 0.1813128
0.15225416 -0.01093026 -0.14689653 0.2598371 -0.2968158 -0.27394253 -0.036438387 -0.23996411
0.066478774 -0.20592655 0.17823681 0.13917625 -0.36607304 0.1460717 -0.38832378 -0.21789685
-0.013002849 -0.036608085 -0.06386268 0.17523646 -0.12887058 -0.0056919637 -0.18270737 -0.0030155831
-0.32441473 -0.17888272 -0.031736773 -0.12340929 -0.040803827 0.1264863 -0.0016369163 -0.28940216
0.044477757 -0.13229021 0.056784417 0.013616158 0.12537418 0.0229803 0.06672917 0.006970548
-0.3255673 0.09521919 0.028532466 -0.121331155 -0.14414847 -0.30038705 0.1971787 0.047004078
0.10379646 -0.0047529894 -0.42308992 0.027216066 0.09945843 -0.03350383 -0.0047602495 0.23649086
-0.15300174 -0.14894159 0.116369165 -0.102390535 0.028997375 -0.19962072 0.10918281 -0.31256288
0.12478206 -0.0002457166 0.21224074 0.2114503 -0.1431247 0.30807802 0.0008623072 0.1519772
-0.1458429 -0.21282354 -0.26219475 -0.42385024 -0.11945182 -0.4065261 0.11573115 0.09859362
0.004484636 0.0011576936 -0.05929167 -0.06296462 0.21862999 -0.06997511 -0.15083964 -0.0023356753
-0.066601306 -0.26344275 -0.009042847 0.12150541 0.12756954 -0.2394668 -0.009772827 -0.21085626
0.0014272054 -0.08538047 -0.12600319 -0.23839617 0.058677796 -0.0013666364 0.042726293 -0.02129018
0.054125458 0.104156636 -0.05377256 0.0048954524 -0.102725305 0.14414069 -0.32038248 -0.12828936
-0.35106605 -0.0016137662 -0.20953777 0.045843426 -0.21287772 -0.052245494 0.11116365 -0.2253893
-0.22581382 0.086058006 -0.14880694 0.15880097 0.041581657 0.08980014 0.052906357 -0.11928998
0.14130287 -0.008874018 0.18253192 -0.36066064 -0.184554 -0.20747824 0.03669615 -0.08026161
0.08175619 -0.20643231 0.0010125235 -0.2573922 0.084625036 -0.19125102 -0.0035130263 0.15704739
-0.03541715 0.0030252503 -0.03412264 0.05566238 -0.27512792 0.081514284 -0.3287676 0.008936426
0.09630115 -0.3330372 -0.010335808 -0.1731072 -0.017533764 -0.11263358 -0.0012654151 0.102394275
-0.0078415945 -0.02432148 0.08294191 -0.0023679675 0.11562897 -0.04814769 -0.10009186 0.025588168
0.08793172 0.113795355 -0.076848105 0.10329597 -0.012370925 -0.27584207 0.16352473 0.096919276
-0.2559741 -0.006840976 -0.13477881 0.015696524 -0.07024403 0.020682162 0.096270435 -0.30770615
-0.3624384 -0.2273304 -0.2669067 -0.04357116 -0.03907713 0.064747006 -0.13728178 -0.22990604
-0.14716691 -0.0034167292 -0.23556043 -0.21924853 0.18254659 -0.060430232 -0.010554434 -0.09844791
-0.071770765 0.1233906 -0.12522265 -0.35301086 0.10452431 -0.34331962 0.14095764 0.15647419
-0.000365475 0.010306428 -0.045521 0.16877726 -0.29381862 0.050455835 0.16349472 -2.4586475e-06
-0.0012341178 0.10367071 0.0030250319 -0.33465937 -0.3765936 0.131389 0.030755596 -0.19404614
-0.07065803 0.16959195 0.035132848 -0.0035148363 -0.03914926 -0.019116085 -0.06724537 0.00063585996
0.088091925 0.12966385 -0.053353086 -0.4557104 -0.11027263 -0.13495246 -0.121671066 0.09326638

fc2.bias f4 [10]
00000000: 81f7 c8bc 8f66 af3e 1c9e c7bd b543 5fbe
00000010: 5603 a53d 5ca5 253e af71 92be fe29 a0bd
00000020: 216c 483e 5838 2bbe
-0.024532082 0.34257933 -0.09746954 -0.21803172 0.08057277 0.16176361 -0.2860236 -0.078205094
0.19572498 -0.16720712
